{
  "modelTopology": {
    "class_name": "Sequential",
    "config": {
      "name": "sequential_1",
      "layers": [
        {
          "class_name": "Dense",
          "config": {
            "units": 64,
            "activation": "relu",
            "input_dim": 10
          }
        },
        {
          "class_name": "Dense",
          "config": {
            "units": 32,
            "activation": "relu"
          }
        },
        {
          "class_name": "Dense",
          "config": {
            "units": 1,
            "activation": "linear"
          }
        }
      ]
    }
  },
  "weightsManifest": [
    {
      "paths": ["weights.bin"],
      "weights": [
        {"name": "dense_1/kernel", "shape": [10, 64], "dtype": "float32"},
        {"name": "dense_1/bias", "shape": [64], "dtype": "float32"},
        {"name": "dense_2/kernel", "shape": [64, 32], "dtype": "float32"},
        {"name": "dense_2/bias", "shape": [32], "dtype": "float32"},
        {"name": "dense_3/kernel", "shape": [32, 1], "dtype": "float32"},
        {"name": "dense_3/bias", "shape": [1], "dtype": "float32"}
      ]
    }
  ]
}